Perspective Transformation/python_codes/deep/deep_network.pth (torch_old, 327234 bytes, 36 tensors)

network.network.0.weight f4 [4, 1, 7, 7]
0.18004979 0.15598525 0.1471803 0.16679777 0.29111665 0.39564037 0.21294804 -0.3325086
-0.42254418 -0.2768647 -0.26379293 -0.38200083 -0.46717495 -0.34950957 0.15443976 0.29031888
0.19625439 0.1790941 0.10514627 0.04761616 0.102169126 0.18072973 0.17747802 -0.042375706
0.058915026 0.12790245 0.094532296 0.2691232 -0.14990646 -0.24703835 0.016195826 -0.20555246
-0.12345769 -0.3959421 -0.33362862 -0.18302788 0.08722382 0.21832249 0.27627674 0.23074046
0.25792935 0.12772377 0.2209589 -0.10314049 -0.22351258 -0.2940782 -0.22358592 -0.051520366
0.07346179 -0.029447181 0.15039471 0.11380185 0.22217678 0.20357123 0.010332669 -0.0011722903
-0.021057168 0.13123636 0.1485103 0.2553214 0.22299413 0.049168006 0.10543639 -0.16410294
-0.22172424 -0.223339 -0.118758 -0.050215513 -0.048609186 -0.03026885 -0.021265483 0.09049646
0.030507931 0.19628982 0.036889974 -0.025416505 -0.05460541 -0.021690683 0.16967535 -0.058390196
-0.13975002 -0.07224252 0.12830159 0.07427371 -0.019032422 0.109826095 0.06134246 -0.027627407
-0.08926766 -0.06996282 -0.21927266 0.10257922 0.246145 -0.023455631 0.102154166 0.20141627
0.16023234 0.16245759 -0.07944318 -0.11343424 -0.31769085 -0.16686967 -0.16557996 -0.01774472
0.12903596 0.012350369 0.15379268 0.24240662 0.14636257 0.09877973 0.13076727 -0.056708727
-0.048724744 -0.16814667 0.015623992 -0.02675496 0.06792235 0.104382515 -0.106307745 -0.022821097
-0.056182325 0.05030845 0.060441535 0.10163679 0.12682897 0.40342 -0.14603691 -0.06327912
-0.1907577 -0.32713327 -0.3378458 -0.3690793 -0.40334415 0.20606075 0.12682956 -0.01401411
0.098690726 0.08929937 -0.048901945 -0.078647576 0.07225532 0.22860208 0.11562673 0.18440457
0.12162257 0.11286045 -0.018354865 -0.02451136 0.14173502 -0.0692481 0.062359836 0.040245492
-0.11284929 -0.09508304 0.09973694 -0.0971716 -0.22353436 -0.19282636 -0.05752532 0.020291088
0.09320635 -0.112173684 -0.016900659 -0.15111217 -0.25247052 -0.07121368 -0.25154665 0.054838873
0.10748282 0.22195496 -0.01646649 0.09323332 0.08879859 0.19256094 0.097731024 -0.055682275
-0.05078028 0.11043087 0.16076405 0.25365022 0.10483709 0.23186748 0.060710806 -0.07061627
-0.01260901 0.16200498 0.08333821 0.0072813453 0.11028257 0.16847551 0.039594408 0.13112868
0.21255033 0.1155743 0.21069044 0.21108982
00000000: f95e 383e 99ba 1f3e 6fb6 163e 09cd 2a3e
00000010: 3e0d 953e 6091 ca3e 0d0f 5a3e 913e aabe
00000020: b657 d8be 36c1 8dbe de0f 87be 9d95 c3be
00000030: 8e31 efbe ebf2 b2be 7525 1e3e ada4 943e
00000040: e9f6 483e 7264 373e ed56 d73d 2a09 433d
00000050: 0c3e d13d 3711 393e ccbc 353e 2692 2dbd
00000060: e250 713d dcf8 023e 269a c13d 84ca 893e
00000070: 1481 19be 9ff7 7cbe 1cad 843c 587c 52be
00000080: 63d7 fcbd ecb8 cabe 5fd1 aabe a96b 3bbe
00000090: 67a2 b23d ee8f 5f3e 2574 8d3e 3a47 6c3e
000000a0: 510f 843e 05ca 023e 0d43 623e 523b d3bd
000000b0: 7be0 64be 6b91 96be b5f3 64be 0507 53bd
000000c0: 2373 963d 373b f1bc 1201 1a3e f210 e93d
000000d0: 4f82 633e fa74 503e 5b4a 293c 89a7 99ba
000000e0: 1580 acbc d362 063e 1613 183e 7db9 823e
000000f0: 9358 643e 6464 493d 09ef d73d 9a0a 28be
00000100: ae0b 63be fbb2 64be 6537 f3bd c8ae 4dbd
00000110: 6d1a 47bd 61f6 f7bc f334 aebc 3556 b93d
00000120: c5eb f93c 3300 493e f119 173d 4636 d0bc
00000130: eca9 5fbd a9b0 b1bc 60bf 2d3e 8f2a 6fbd
00000140: a11a 0fbe e3f3 93bd 7e61 033e d11c 983d
00000150: e2e9 9bbc 81ec e03d 3b42 7b3d df52 e2bc
00000160: f7d1 b6bd ab48 8fbd 0389 60be 0e15 d23d
00000170: 6f0d 7c3e 0626 c0bc 3436 d13d 1140 4e3e
00000180: f213 243e 485b 263e 1bb3 a2bd 3650 e8bd
00000190: 60a8 a2be e2df 2abe cb8d 29be 605d 91bc
000001a0: 0122 043e 3459 4a3c d47b 1d3e 7139 783e
000001b0: 12e0 153e 074d ca3d dbe7 053e 6947 68bd
000001c0: 9993 47bd a42e 2cbe c6fb 7f3c 382d dbbc
000001d0: df1a 8b3d 80c6 d53d e0b7 d9bd 4ff3 babc
000001e0: 701f 66bd 3c10 4e3d 8b91 773d f326 d03d
000001f0: 74df 013e 118d ce3e b38a 15be 7c98 81bd
00000200: fd55 43be 037e a7be 20fa acbe f6f7 bcbe
00000210: 2083 cebe 9701 533e 9cdf 013e 709b 65bc
00000220: 5d1e ca3d 97e2 b63d 684d 48bd fb11 a1bd
00000230: 99fa 933d aa16 6a3e b5cd ec3d 8dd4 3c3e
00000240: 4115 f93d 6123 e73d f15c 96bc 0ccc c8bc
00000250: fc22 113e f3d1 8dbd 076d 7f3d 75d8 243d
00000260: 871d e7bd e6ba c2bd e142 cc3d e701 c7bd
00000270: 31e6 64be 4674 45be ac9f 6bbd 7f39 a63c
00000280: f9e2 be3d 51bb e5bd 4073 8abc 26bd 1abe
00000290: d143 81be 7ad8 91bd b9ca 80be ba9e 603d
000002a0: f41f dc3d 2948 633e bce4 86bc 1cf1 be3d
000002b0: 09dc b53d b22e 453e 3427 c83d 1913 64bd
000002c0: fcfe 4fbd 9429 e23d 559f 243e 71de 813e
000002d0: d4b4 d63d ab6e 6d3e e5ab 783d 439f 90bd
000002e0: 0596 4ebc a2e4 253e 39ad aa3d 5a98 ee3b
000002f0: d4db e13d d884 2c3e bf2d 223d 9946 063e
00000300: cba6 593e 38b2 ec3d 3cbf 573e ee27 583e

network.network.0.bias f4 [4]
-0.0186131 0.0066916854 -0.015931249 0.08877673
00000000: 807a 98bc ed45 db3b 4082 82bc 93d0 b53d

network.network.2.weight f4 [8, 4, 5, 5]
0.04806141 0.14553718 0.10733038 0.14308465 0.1867326 0.20357703 0.16947487 0.13399523
0.116519526 0.06135469 0.15098876 0.17754534 0.1488314 0.10680595 0.11305256 0.07961642
0.21204518 0.15289244 0.2584981 0.11666105 -0.038458787 0.0617249 0.1564181 0.053351548
0.054124117 -0.2005177 -0.14997591 -0.19048336 -0.09476265 -0.12175408 0.14980677 -0.013191749
0.1780298 0.18223456 0.112181626 -0.00019293252 0.09696416 0.16515274 0.06041181 0.015250814
0.008461595 0.18263337 0.16524391 0.27963677 0.11605484 0.0007218272 -0.067343116 -0.15649725
0.11716253 0.003815077 0.08235498 0.121927045 0.058835603 0.2388358 0.124057144 0.20495051
0.27041703 0.1771016 0.2299185 0.20518498 0.18090282 0.18534423 0.10929554 0.116410375
0.10768028 0.23192762 0.1749178 0.14436617 0.2707351 0.18179552 -0.32664603 -0.034626774
0.18382193 0.20285328 0.16689052 0.09469159 -0.016822802 0.0034994914 0.14670654 0.092138395
0.0851789 -0.023545457 0.07485186 0.09959261 0.09018341 0.10523763 0.07221185 0.02995494
0.06867654 0.050604172 0.20224097 0.17384076 0.05577811 0.124019 0.106216274 0.038270943
0.054911554 0.105803765 0.1851131 0.04077317 0.12513548 0.14164582 0.14680749 0.25376168
0.15555733 0.17287573 0.15922256 0.18229198 0.18798555 0.09813546 0.20097192 0.12741122
0.17466214 0.0850579 0.03861153 0.14241992 0.12361079 0.10493899 0.12695603 0.046709314
-0.07403178 0.14448826 -0.028219583 -0.06786137 -0.018283477 0.22106004 0.1962728 0.14779407
0.19790551 0.15477288 0.3398788 0.065642625 0.07077738 0.32687688 -0.048940003 0.17107846
0.12062842 0.031605132 0.13218743 0.088996254 0.058081456 0.09776666 0.1321952 0.053726364
0.10363237 0.06887942 0.014836735 0.13251641 0.038222972 0.07960809 0.1798274 0.20431015
0.20060316 0.18132813 0.0847505 0.19594495 0.11189905 0.22272907 0.184293 0.19466984
0.081657544 0.22846535 0.1776656 0.117324516 0.12986207 0.099459626 0.24190897 0.16208334
0.27993125 0.15705009 0.11234465 0.16279164 0.2056008 0.17486174 0.017495653 0.01788856
0.09932517 0.16747135 0.025493065 0.13356985 0.08658115 0.091075644 0.169429 0.10355954
0.034089204 0.06429781 0.17461187 0.09846639 -0.02080147 0.08440016 0.13053395 0.119560145
0.13721754 0.016696107 0.09088053 0.18234311 0.08410052 0.09495641 0.015772978 0.04938875
-0.14937072 -0.07843516 0.1306094 0.071275495 -0.14383748 -0.008891275 0.13419744 -0.0370065
0.112401985 -0.03448521 -0.020414509 0.036566406 0.04830494 0.07958373 0.08316726 0.20380199
0.15473908 0.10784282 0.04204077 0.06306156 0.27790257 0.27799612 0.15273164 0.18856235
0.11087905 0.06203638 0.14233457 0.062342603 0.15692092 0.10042589 -0.03075719 0.0033902682
-0.07792017 0.118391 0.13142444 0.12474444 0.020752182 0.051137503 0.09482882 -0.06483917
0.1180739 0.1986235 0.0006752801 0.14765424 0.14158149 0.086469054 0.19233906 0.18109268
0.18503587 -0.01989741 -0.1060267 -0.079316095 -0.29199114 0.14333951 -0.0060094795 -0.010960308
00000000: 0bdc 443d b307 153e 08d0 db3d c884 123e
00000010: d536 3f3e 7f76 503e d28a 2d3e 0c36 093e
00000020: caa1 ee3d 0e4f 7b3d cc9c 1a3e 72ce 353e
00000030: 4267 183e 14bd da3d 1a88 e73d ef0d a33d
00000040: 5f22 593e d68f 1c3e dd59 843e fdeb ee3d
00000050: f686 1dbd 40d3 7c3d 112c 203e 2787 5a3d
00000060: 40b1 5d3d 8354 4dbe 4993 19be 120e 43be
00000070: ec12 c2bd 345a f9bd f266 193e 3522 58bc
00000080: 724d 363e b29b 3a3e 7bbf e53d ee4d 4ab9
00000090: 2595 c63d cd1d 293e 6072 773d 8dde 793c
000000a0: 80a2 0a3c 3e04 3b3e b335 293e 8d2c 8f3e
000000b0: 29ae ed3d 0139 3d3a 30eb 89bd d140 20be
000000c0: e9f2 ef3d 5f06 7a3b baa9 a83d e3b4 f93d
000000d0: 9afd 703d 5f91 743e ac11 fe3d 8cde 513e
000000e0: 1a74 8a3e 1f5a 353e c16f 6b3e 031c 523e
000000f0: 973e 393e e1ca 3d3e 57d6 df3d 9068 ee3d
00000100: 7b87 dc3d 6f7e 6d3e a71d 333e bad4 133e
00000110: cb9d 8a3e 9b28 3a3e 263e a7be ced4 0dbd
00000120: d13b 3c3e c5b8 4f3e 59e5 2a3e aaed c13d
00000130: f9cf 89bc b957 653b 3d3a 163e 0eb3 bc3d
00000140: 4672 ae3d 67e2 c0bc ef4b 993d 36f7 cb3d
00000150: 14b2 b83d d486 d73d cee3 933d 1064 f53c
00000160: 49a6 8c3d 5246 4f3d 4218 4f3e 5003 323e
00000170: 9677 643d acfd fd3d eb87 d93d fec1 1c3d
00000180: f0ea 603d a5af d83d 4a8e 3d3e c401 273d
00000190: 8423 003e 9a0b 113e b454 163e 0ded 813e
000001a0: 6c4a 1f3e 5606 313e 3d0b 233e c0aa 3a3e
000001b0: 497f 403e 3efb c83d 95cb 4d3e 1678 023e
000001c0: a2da 323e d632 ae3d 2027 1e3d 87d6 113e
000001d0: a727 fd3d 41ea d63d c300 023e 4452 3f3d
000001e0: f99d 97bd bbf4 133e c12c e7bc e7fa 8abd
000001f0: 3bc7 95bc 905d 623e bdfb 483e 5457 173e
00000200: bea7 4a3e c87c 1e3e 9804 ae3e a46f 863d
00000210: bbf3 903d 685c a73e 5075 48bd 312f 2f3e
00000220: 080c f73d 6274 013d 245c 073e ab43 b63d
00000230: d2e6 6d3d e339 c83d 2e5e 073e 2d10 5c3d
00000240: 353d d43d a710 8d3d c715 733c 62b2 073e
00000250: b18f 1c3d 9109 a33d ad24 383e ae36 513e
00000260: ea6a 4d3e 15ae 393e ac91 ad3d cba5 483e
00000270: 542b e53d 1713 643e 4eb7 3c3e 8857 473e
00000280: 123c a73d d2f2 693e f9ed 353e d647 f03d
00000290: 90fa 043e 7db1 cb3d fcb6 773e 2df9 253e
000002a0: 2653 8f3e bdd1 203e f414 e63d dab2 263e
000002b0: 0489 523e f50e 333e 0b53 8f3c 088b 923c
000002c0: ff6a cb3d 9c7d 2b3e d5d6 d03c 89c6 083e
000002d0: 7551 b13d de85 ba3d cc7e 2d3e 0617 d43d
000002e0: 1fa1 0b3d 92ae 833d 74cd 323e bfa8 c93d
000002f0: d867 aabc fed9 ac3d b1aa 053e f3db f43d
00000300: c182 0c3e 46c6 883c 921f ba3d 27b8 3a3e
00000310: e53c ac3d 8278 c23d 5536 813c dc4b 4a3d
00000320: a3f4 18be 9da2 a0bd 78be 053e e3f8 913d
00000330: 224a 13be b6ac 11bc 0e6b 093e 2194 17bd
00000340: 0333 e63d 5d40 0dbd 543c a7bc a8c6 153d
00000350: 67db 453d cbfc a23d 9953 aa3d 78b1 503e
00000360: ec73 1e3e b2dc dc3d f132 2c3d 6b26 813d
00000370: 3f49 8e3e 8255 8e3e af65 1c3e 7d16 413e
00000380: 8e14 e33d dc19 7e3d 27c0 113e f55a 7f3d
00000390: e1af 203e 17ac cd3d 81f6 fbbc 432f 5e3b
000003a0: 9c94 9fbd fb76 f23d 2194 063e 037a ff3d
000003b0: 7b00 aa3c 8f75 513d 9d35 c23d 66ca 84bd
000003c0: bbd0 f13d f563 4b3e 4805 313a ac32 173e
000003d0: bdfa 103e b016 b13d 88f4 443e 5c70 393e
000003e0: 0b7a 3d3e e5ff a2bc 8724 d9bd 7a70 a2bd
000003f0: dd7f 95be 98c7 123e 2beb c4bb dd92 33bc

network.network.2.bias f4 [8]
-0.04195184 -0.059340205 0.069948524 0.016998218 0.013516605 -0.024067145 0.0050336635 0.027315196
00000000: b1d5 2bbd b70e 73bd 2c41 8f3d d93f 8b3c
00000010: c074 5d3c 7628 c5bc 6ef1 a43b 1ec4 df3c

network.network.4.weight f4 [16, 8, 3, 3]
-0.20202294 0.1360998 0.20361131 -0.03549485 0.083148845 0.18965986 0.07574656 0.13826936
0.12428551 0.11807208 0.08915795 0.19881882 0.061939772 0.13179852 0.10540144 0.13842846
-0.018941239 -0.08027469 -0.1448916 -0.08858024 -0.24145754 -0.001268571 -0.07277877 0.057216395
0.18551803 -0.055728637 0.0828347 0.0061496696 -0.17154664 -0.1041668 0.026820567 -0.14403623
0.014021631 -0.09114086 -0.15166768 -0.19298528 -0.01999652 -0.021480998 0.15811706 2.9373303e-05
0.100370854 0.20357363 0.097305804 -0.014955922 0.14281124 -0.053877696 0.15690994 -0.0033260663
0.008206 0.07774966 -0.0034528896 -0.11858646 0.026812939 0.025685517 -0.005426653 0.06169753
0.046769347 0.063185565 0.06786568 0.08454947 -0.22090816 -0.013849131 0.025214383 -0.036247488
-0.12635122 0.04635985 0.0023741333 -0.17395607 0.1469562 -0.039130494 0.08219713 -0.088217854
-0.05102113 0.13423507 0.20539038 -0.031493332 0.09485542 0.24852806 0.0039943177 -0.018605733
0.18069005 0.22230655 0.043264195 0.2018362 0.13314703 0.031612054 0.233844 0.04657803
0.12725674 0.002698355 0.062281035 -0.046032395 0.09004726 0.085609004 0.13901308 0.022415414
0.1390856 0.18035652 0.16373055 -0.009469492 -0.041876618 -0.054706324 -0.047359046 -0.0018997258
0.007942612 -0.09587553 -0.053204965 0.06772893 0.18171605 0.18577309 0.056812387 0.069647916
0.096042976 0.032022603 0.14851293 0.012566523 0.061337564 0.11663483 0.017057443 -0.083372675
-0.07308244 0.076368816 0.014737563 0.12929456 0.1784888 -0.028569654 0.049768604 -0.0044711204
0.04396313 0.0772568 0.0055470644 -0.009678221 0.058618933 0.100587904 -0.011694046 -0.06816486
-0.09020622 0.14242539 0.07717705 0.12886587 -0.019028045 -0.12256289 -0.10934914 -0.0326653
0.07022873 0.017613022 0.21146153 0.027205352 0.060256016 0.23367369 -0.11696304 0.06873382
0.04760498 0.16116352 0.07769825 0.26781762 0.14468543 0.11291939 0.05186519 0.09578444
-0.10687692 -0.057211388 -0.1376371 -0.12392697 -0.07562911 0.08684525 0.1487823 0.21089454
0.06697121 0.13759074 0.08214355 0.030479593 -0.028709322 -0.15192825 -0.0029635823 0.1982298
0.025845377 -0.03324975 0.015147394 0.14113934 0.1269218 0.18020724 0.116028465 0.20959608
-0.014530075 0.091046 0.038128167 -0.046315104 0.16213225 0.1012649 -0.013321738 0.13045396
-0.1279766 0.15733847 0.080091596 0.07712033 0.20488414 0.2524157 -0.20712669 0.093973495
0.22008303 -0.13222425 0.22624886 0.29844296 -0.034214728 -0.010888496 0.3376596 -0.0100402245
0.014281151 0.27553147 0.0005792143 0.03883344 0.16552107 -0.041598916 0.07383664 0.08288606
0.10719765 -0.08374596 -0.15123929 0.058766916 -0.1350317 -0.1644808 -0.12492203 -0.11514255
-0.06986899 -0.071887426 -0.026066313 0.09400094 0.14187886 0.08917813 0.18614067 0.124914296
0.17551294 0.08840404 -0.036315132 -0.018091502 0.039673112 0.06894794 -0.11059877 0.121385716
-0.104444906 -0.051116783 -0.08495669 -0.08861085 0.090347864 0.12798883 -0.01833102 0.12553939
-0.11712665 -0.057469 -0.022984268 0.06725464 0.11562095 -0.109006114 -0.12761505 0.038749732
00000000: 1adf 4ebe bf5d 0b3e 7c7f 503e 0c63 11bd
00000010: f149 aa3d 3236 423e 0321 9b3d 7c96 0d3e
00000020: 6789 fe3d c6cf f13d 7198 b63d 2997 4b3e
00000030: 8fb4 7d3d 31f6 063e b6dc d73d 31c0 0d3e
00000040: a82a 9bbc 0f67 a4bd 775e 14be 8f69 b5bd
00000050: a540 77be 2e46 a6ba 090d 95bd bd5b 6a3d
00000060: 70f8 3d3e b643 64bd 3da5 a93d 2b83 c93b
00000070: eca9 2fbe 6755 d5bd ceb6 db3c 3c7e 13be
00000080: fcba 653c 0fa8 babd c64e 1bbe ef9d 45be
00000090: becf a3bc ebf8 afbc 70e9 213e b066 f637
000000a0: 3c8f cd3d 9b75 503e 4448 c73d af09 75bc
000000b0: 1c3d 123e dcae 5cbd 00ad 203e 22fa 59bb
000000c0: 7572 063c 373b 9f3d e049 62bb 75dd f2bd
000000d0: cfa6 db3c 6f6a d23c 11d2 b1bb 8db6 7c3d
000000e0: 3791 3f3d 6f67 813d 29fd 8a3d 4628 ad3d
000000f0: c035 62be 77e7 62bc 658e ce3c 3f78 14bd
00000100: 3762 01be d3e3 3d3d 5997 1b3b 8a21 32be
00000110: b07b 163e 4c47 20bd f856 a83d 90ab b4bd
00000120: 88fb 50bd eb74 093e db51 523e 27ff 00bd
00000130: 8f43 c23d 247e 7e3e c4e2 823b 0d6b 98bc
00000140: d006 393e 54a4 633e cc35 313d 26ae 4e3e
00000150: b257 083e a47b 013d cd74 6f3e 9bc8 3e3d
00000160: 974f 023e e2d6 303b 661a 7f3d 778c 3cbd
00000170: b36a b83d c653 af3d 7259 0e3e 88a0 b73c
00000180: 756c 0e3e 61af 383e fba8 273e ee25 1bbc
00000190: d186 2bbd bd13 60bd 8ffb 41bd 3800 f9ba
000001a0: bb21 023c 645a c4bd 73ed 59bd 77b5 8a3d
000001b0: c613 3a3e 4d3b 3e3e 1bb4 683d 91a3 8e3d
000001c0: 2eb2 c43d 222a 033d c613 183e d1e3 4d3c
000001d0: 193d 7b3d 3ede ee3d 0dbc 8b3c 4bbf aabd
000001e0: 3fac 95bd 4167 9c3d d275 713c cb65 043e
000001f0: c5c5 363e e80a eabc 2ada 4b3d 7a82 92bb
00000200: af12 343d d038 9e3d 26c4 b53b 6791 1ebc
00000210: 681a 703d 0801 ce3d 6298 3fbc 059a 8bbd
00000220: 0abe b8bd f6d7 113e 000f 9e3d 6af5 033e
00000230: b4e0 9bbc 4102 fbbd 71f2 dfbd 0dcc 05bd
00000240: 15d4 8f3d 2f49 903c 5f89 583e c2dd de3c
00000250: 03cf 763d 2848 6f3e 518a efbd 51c4 8c3d
00000260: 71fd 423d 0d08 253e 4320 9f3d 641f 893e
00000270: 6b28 143e 4842 e73d 9870 543d a22a c43d
00000280: 49e2 dabd 7d56 6abd bdf0 0cbe 6ccd fdbd
00000290: 6fe3 9abd ecdb b13d 635a 183e bdf4 573e
000002a0: 3428 893d 96e4 0c3e e13a a83d 57b0 f93c
000002b0: d02f ebbc 1493 1bbe a938 42bb c1fc 4a3e
000002c0: afb9 d33c e430 08bd c62c 783c d586 103e
000002d0: caf7 013e 3f88 383e 55a0 ed3d 5ba0 563e
000002e0: 8d0f 6ebc 5376 ba3d 482c 1c3d e8b4 3dbd
000002f0: ff05 263e f963 cf3d 6b43 5abc b995 053e
00000300: 4c0c 03be 561d 213e 1007 a43d 43f1 9d3d
00000310: 26cd 513e a13c 813e 0519 54be 2d75 c03d
00000320: 725d 613e cb65 07be c8ad 673e 84cd 983e
00000330: be24 0cbd aa65 32bc b8e1 ac3e c17f 24bc
00000340: 7dfb 693c 7612 8d3e 6ad6 173a d00f 1f3d
00000350: 5b7e 293e a063 2abd aa37 973d 2bc0 a93d
00000360: 718a db3d 0083 abbd 79de 1abe 94b5 703d
00000370: c045 0abe a86d 28be 1fd7 ffbd dbcf ebbd
00000380: 7917 8fbd b739 93bd 0589 d5bc 9183 c03d
00000390: b148 113e 06a3 b63d a99b 3e3e 11d3 ff3d
000003a0: aab9 333e 2d0d b53d 2dbf 14bd a134 94bc
000003b0: 4680 223d 9434 8d3d 9c81 e2bd 1399 f83d
000003c0: 36e7 d5bd d55f 51bd c6fd adbd 9b79 b5bd
000003d0: 4d08 b93d 810f 033e ef2a 96bc 668d 003e
000003e0: 19e0 efbd 9d64 6bbd 8149 bcbc cdbc 893d
000003f0: adca ec3d 993e dfbd 85ad 02be 0ab8 1e3d

network.network.4.bias f4 [16]
-0.01846294 0.02359098 -0.08507929 0.00055484235 -0.110769555 -0.06994142 0.026072262 -0.057599936
0.016557416 -0.04326148 0.02251473 -0.03978223 -0.028343886 -0.065387 0.033748228 0.0360109
00000000: 973f 97bc df41 c13c 0d3e aebd d772 113a
00000010: 26db e2bd 723d 8fbd 7f95 d53c e9ed 6bbd
00000020: 6ba3 873c f332 31bd d070 b83c b1f2 22bd
00000030: 7031 e8bc 9fe9 85bd 953b 0a3d 2a80 133d

network.network.6.weight f4 [32, 16, 3, 3]
0.061919983 0.054963402 0.1467116 0.07805201 0.21155141 0.29895717 -0.13292024 0.10367998
0.08572032 -0.101707146 0.23259686 0.12150953 -0.022151137 0.27254063 0.27766383 -0.1463382
0.24139334 0.16418307 -0.114486344 0.17054015 0.19506577 0.008099056 0.16759984 0.36478186
-0.25493014 -0.0051682177 0.09263639 0.015811216 0.042142272 0.14433254 0.058122046 0.014883287
0.07856536 0.044355754 -0.04275295 0.0470949 -0.1957749 0.21627395 0.024591248 -0.12842523
0.5560865 0.40582344 -0.059487153 0.5010482 0.41398558 0.005631976 0.23001778 0.11125034
-0.031087637 0.38319996 0.3532297 -0.24147497 0.20959187 0.090401754 0.04971048 0.087343566
0.16487388 -0.068780206 0.19439106 0.26734662 -0.068093516 0.24429701 0.25883996 -0.038576283
-0.02786239 -0.015143455 -0.23208234 0.14350381 0.2511071 0.026976144 0.20551217 0.26128513
0.08383181 0.06900997 0.11437476 0.1839654 0.07903231 0.21495356 -0.0048270137 -0.2034299
0.027005652 -0.049150504 0.123778954 0.13222776 0.09092574 0.2600884 0.35134032 -0.17414904
0.206575 0.052500814 0.060482055 0.027314736 -0.06099974 -0.08682862 -0.047571633 0.017654303
-0.06404708 -0.043578777 -0.06555302 -0.13907534 0.012832172 0.04420409 0.10217284 0.14719522
0.36698055 -0.069775045 0.11094335 0.3198367 -0.0052340645 0.121634066 0.08213886 0.09961976
0.35371125 0.34574792 -0.14322248 0.31185165 0.09179716 -0.11737434 0.28607035 0.11586327
-0.04331778 0.29020566 0.19881172 -0.22860862 0.34531942 0.2597109 -0.047953527 0.217493
0.03324897 0.045179676 0.26389152 0.15574308 -0.1165931 0.063183226 0.012408384 -0.073865265
0.10282938 0.07695666 0.030707316 0.19518782 0.2865945 -0.21671139 0.093234785 -0.029841162
-0.017301457 0.038493074 0.054428983 0.040542506 0.012139177 -0.019405598 0.076010816 0.12306142
-0.023567868 -0.0617338 0.06699681 0.0011747954 -0.010511745 0.041264802 0.021149492 -0.08636432
-0.016096784 0.10338648 -0.07624074 0.069124386 0.07447449 -0.008582321 0.105891936 0.10553776
-0.08361288 0.08999713 0.1166417 0.01255288 -0.05599254 -0.07615219 -0.0540969 0.06650404
-0.029715471 0.055804756 -0.010228704 -0.011231007 -0.006174213 0.13308382 0.17053677 -0.3080025
0.30435112 0.3066946 -0.121882364 0.07296487 0.17931403 -0.02210781 0.117308445 -0.047880247
0.003086734 0.123753324 0.11610991 -0.018509155 0.059417132 0.058561794 -0.026282394 0.10549817
0.07120191 0.017978406 0.09369241 0.09599039 -0.03018449 -0.012716645 0.030036496 -0.08534748
-0.03355286 -0.07729367 -0.04900351 0.11266232 -0.0019931365 -0.026052127 0.071996756 0.02552051
0.084650084 -0.003284928 0.09080893 -0.040920436 0.10940328 0.05835757 -0.05940978 0.020712841
0.108413525 0.02441952 0.014645933 -0.004740594 -0.0063950163 0.14590436 0.12031267 0.066685565
0.036654927 0.10871546 -0.07265705 -0.05097669 0.076205 -0.11007618 -0.021885153 0.022560602
0.01855066 -0.00827318 -0.016794877 -0.0479971 -0.15344556 0.15616116 -0.018629465 -0.018577918
0.10091207 -0.0536927 -0.105852574 0.042221908 -0.052495196 0.10784445 -0.024530688 -0.04392723
00000000: cf9f 7d3d 4e21 613d 913b 163e bbd9 9f3d
00000010: efa0 583e ea10 993e 3e1c 08be 2b56 d43d
00000020: 238e af3d d64b d0bd df2d 6e3e fdd9 f83d
00000030: 4d76 b5bc 728a 8b3e f429 8e3e aed9 15be
00000040: d12f 773e 9b1f 283e d177 eabd 14a2 2e3e
00000050: 52bf 473e e7b1 043c 4b9f 2b3e b0c4 ba3e
00000060: 3486 82be 275a a9bb 26b8 bd3d 8686 813c
00000070: 609d 2c3d e9cb 133e 6211 6e3d 08d9 733c
00000080: e0e6 a03d 61ae 353d b81d 2fbd 95e6 403d
00000090: 3779 48be eb76 5d3e 9673 c93c e781 03be
000000a0: af5b 0e3f 17c8 cf3e cda8 73bd b244 003f
000000b0: ebf5 d33e 708c b83b c889 6b3e 38d7 e33d
000000c0: 80ab febc c932 c43e 86da b43e 3745 77be
000000d0: 409f 563e 8e24 b93d 379d 4b3d 2fe1 b23d
000000e0: b3d4 283e a3dc 8cbd 730e 473e a8e1 883e
000000f0: 9d74 8bbd ff28 7a3e ac86 843e 2a02 1ebd
00000100: ab3f e4bc 411c 78bc fea6 6dbe aaf2 123e
00000110: 1c91 803e 13fd dc3c c871 523e 2ac7 853e
00000120: 03b0 ab3d 1955 8d3d 503d ea3d 6d61 3c3e
00000130: b1db a13d c91c 5c3e ed2b 9ebb ed4f 50be
00000140: f53a dd3c 0a52 49bd d27f fd3d b766 073e
00000150: 4637 ba3d 4f2a 853e e1e2 b33e 2054 32be
00000160: 6688 533e 180b 573d 08bc 773d 27c3 df3c
00000170: ddda 79bd 34d3 b1bd 79da 42bd c29f 903c
00000180: 1e2b 83bd a97f 32bd a940 86bd c469 0ebe
00000190: 083e 523c 590f 353d fe3f d13d 58ba 163e
000001a0: e0e4 bb3e 38e6 8ebd 4436 e33d a3c1 a33e
000001b0: 8482 abbb 481b f93d 6b38 a83d 7205 cc3d
000001c0: a419 b53e df05 b13e eaa8 12be 05ab 9f3e
000001d0: 2600 bc3d f561 f0bd d077 923e b949 ed3d
000001e0: fc6d 31bd d695 943e 4d95 4b3e 6118 6abe
000001f0: b5cd b03e d4f8 843e eb6a 44bd 7cb6 5e3e
00000200: 1230 083d 530e 393d ca1c 873e 1d7b 1f3e
00000210: 5dc8 eebd 3566 813d 894c 4b3c ac46 97bd
00000220: 3698 d23d 749b 9d3d e98d fb3c 51df 473e
00000230: 84bc 923e 97e9 5dbe e1f1 be3d 7475 f4bc
00000240: c9bb 8dbc eaaa 1d3d edf0 5e3d e60f 263d
00000250: 66e3 463c 7df8 9ebc 8fab 9b3d a007 fc3d
00000260: 6711 c1bc 95dc 7cbd a035 893d 98fb 993a
00000270: 7439 2cbc 4805 293d b341 ad3c c7df b0bd
00000280: 67dd 83bc 4abc d33d 1b24 9cbd 1691 8d3d
00000290: 1586 983d dd9c 0cbc dfdd d83d 2e24 d83d
000002a0: 3b3d abbd 6a50 b83d d8e1 ee3d 98aa 4d3c
000002b0: 6f58 65bd aef5 9bbd b694 5dbd 4533 883d
000002c0: dc6d f3bc 8793 643d 4b96 27bc 4202 38bc
000002d0: 0d51 cabb 2047 083e 31a1 2e3e 81b2 9dbe
000002e0: e9d3 9b3e 1307 9d3e 769d f9bd 9b6e 953d
000002f0: 199e 373e 701b b5bc 693f f03d 141e 44bd
00000300: ce4a 4a3b 6272 fd3d 08cb ed3d 83a0 97bc
00000310: 615f 733d 7ede 6f3d 2d4e d7bc 6d0f d83d
00000320: 4fd2 913d 7347 933c cee1 bf3d 9c96 c43d
00000330: 7745 f7bc 7a59 50bc 190f f63c a9ca aebd
00000340: b96e 09bd 254c 9ebd e8b7 48bd 81bb e63d
00000350: 489f 02bb 456b d5bc 0973 933d 6310 d13c
00000360: 065d ad3d f247 57bb 08fa b93d 309c 27bd
00000370: d40e e03d 5908 6f3d ab57 73bd faad a93c
00000380: e907 de3d 720b c83c 7ff5 6f3c fc56 9bbb
00000390: 498d d1bb f467 153e 7d66 f63d 7192 883d
000003a0: 7a23 163d 36a6 de3d 38cd 94bd efcc 50bd
000003b0: 5e11 9c3d 9f6f e1bd 7e48 b3bc 03d1 b83c
000003c0: 8ef7 973c 3b8c 07bc 6995 89bc 9b98 44bd
000003d0: d520 1dbe b6e8 1f3e d29c 98bc b830 98bc
000003e0: fdaa ce3d e0ec 5bbd 3cc9 d8bd e1f0 2c3d
000003f0: 3405 57bd 8ddd dc3d 95f4 c8bc 0aed 33bd

network.network.6.bias f4 [32]
-0.11174907 -0.07077564 -0.01479633 -0.09545159 -0.053013068 -0.081065774 -0.09462404 0.051197164
0.080741696 0.004259018 0.050361894 -0.05198203 -0.04543138 0.01458435 -0.03079496 0.0083491495
0.024272265 -0.1293121 -0.038818687 -0.01378365 0.023396881 -0.10613507 -0.06806658 -0.03920321
-0.15017486 -0.102783084 -0.040616717 -0.039081417 0.00030699413 -0.01412748 -0.016951416 0.017211217
00000000: b2dc e4bd d2f2 90bd 4e6c 72bc 207c c3bd
00000010: 3b24 59bd d005 a6bd 40ca c1bd 1eb4 513d
00000020: e75b a53d 3c8f 8b3b 4648 4e3d 1ceb 54bd
00000030: 4116 3abd 33f3 6e3c b645 fcbc dfca 083c
00000040: a1d6 c63c 646a 04be 5800 1fbd d1d4 61bc
00000050: d1aa bf3c 585d d9bd 7e66 8bbd 8c93 20bd
00000060: 70c7 19be f07f d2bd b75d 26bd d613 20bd
00000070: 0ef4 a039 f276 67bc b2dd 8abc 8afe 8c3c

network.network.8.weight f4 [16, 32, 3, 3]
-0.10023366 -0.11620042 0.0028341033 -0.048003096 -0.123235956 -0.044377506 -0.08507539 0.011629599
-0.041456234 0.0044700843 -0.032889068 -0.01145705 0.0030686671 -0.044908788 -0.024840174 -0.09456555
-0.02334963 -0.073983915 -0.030398019 -0.11533763 -0.031064399 -0.030283613 -0.08091722 -0.06779139
-0.11784602 -0.013486865 -0.04336722 -0.039682895 -0.061212353 -0.11218999 -0.05093736 -0.09074238
-0.067794725 -0.037753332 -0.084072724 -0.0027576515 0.06739778 -0.03398968 -0.02824206 0.013227736
0.073866434 -0.005515727 -0.01232187 -0.06381388 -0.022218416 0.00037424354 0.023599226 -0.032596767
0.008507974 -0.029278917 -0.036975726 -0.020248536 -0.02628603 -0.06529696 -0.036056746 0.01658272
0.0566722 -0.049687434 -0.009612587 0.00052249414 0.04396801 -0.033088937 0.014109227 0.070616506
0.031932406 -0.0019775447 -0.016861184 0.03944547 0.013072919 -0.0821672 -0.004061831 0.022051267
-0.020377245 -0.003631967 -0.014792234 0.080068894 0.03944552 0.040463045 -0.053354267 -0.07517188
0.0093937535 -0.0037443212 -0.11449401 -0.023623873 0.072867036 -0.0055743107 -0.015068045 -0.08100172
-0.048950713 -0.09947967 -0.058144134 0.043615308 -0.025828313 0.038394317 -0.060091037 -0.021119213
-0.10472459 -0.098005824 -0.08758866 0.0002815143 -0.009415171 -0.000540607 0.060359657 0.02381545
0.00062807335 -0.027167125 -0.03768336 -0.014136209 0.08311868 -0.0012065232 0.030769713 0.06221441
-0.013454228 0.023287307 -0.023097211 -0.04465348 0.014064154 0.057919215 -0.06047025 -0.04164466
0.0016056933 0.011644074 -0.034881234 0.01058012 0.025712287 -0.04595753 -0.1107684 -0.04757343
0.06869962 -0.047098223 -0.0472319 -0.07879841 0.09948311 -0.11686392 -0.054792047 -0.019936258
-0.0170504 -0.016263159 0.05146472 0.07101686 0.04230999 -0.041386776 0.01809783 -0.07354897
-0.07309843 -0.010187828 -0.106455654 -0.09829623 -0.107527405 -0.11409567 -0.01830986 -0.042277716
-0.077054396 -0.006569331 0.023822904 0.06940208 -0.08241294 -0.13212849 -0.014809109 0.027984673
-0.07325858 -0.06938533 0.034297466 0.016274817 -0.00465962 -0.032767262 0.053637058 0.021194175
-0.007149376 0.010844919 -0.0036371683 0.050821546 0.020518327 -0.06094403 0.081806324 -0.04958754
-0.0062010195 -0.050905675 -0.087920696 -0.008310179 -0.03790668 0.03527054 0.022019085 0.019625306
-0.056690745 0.038727786 -0.00940301 -0.035055347 0.0034553646 0.03900027 0.06790679 0.038913615
0.031428117 0.07723119 0.012787448 -0.04891178 0.003158515 -0.051468518 0.043896366 -0.015106625
0.011256574 0.03739292 0.0053130668 -0.009506283 -0.06937401 0.004553431 -0.078967884 0.02907126
-0.004791404 0.058589913 0.054184165 0.017710127 -0.026449522 -0.025566624 0.027522953 0.016953612
-0.03921649 -0.09400622 -0.014633794 -0.066462666 -0.026928462 0.014768338 -0.0384571 -0.065894775
-0.03853701 0.03705175 0.020853415 -0.03832566 0.06235136 0.008474707 0.046710376 0.06665771
0.034469683 -0.01862434 -0.045838144 0.023347408 0.07685677 -0.051792674 0.045748565 0.028874107
-0.0103044445 0.019683719 -0.035939716 -0.04483375 -0.13075061 -0.070656024 -0.045715965 -0.045345627
-0.11840208 -0.025835024 -0.025903065 -0.096440986 -0.086448886 -0.03908019 -0.08018082 -0.11751531
00000000: 4e47 cdbd 7cfa edbd 5dbc 393b e59e 44bd
00000010: 2263 fcbd 30c5 35bd 023c aebd 138a 3e3c
00000020: 03ce 29bd c979 923b b0b6 06bd 5ab6 3bbc
00000030: b11b 493b 47f2 37bd 9f7d cbbc 95ab c1bd
00000040: b947 bfbc e184 97bd 4405 f9bc 2336 ecbd
00000050: c47a febc 5715 f8bc edb7 a5bd 36d6 8abd
00000060: 4159 f1bd 03f8 5cbc d3a1 31bd 888a 22bd
00000070: ceb9 7abd dec3 e5bd b1a3 50bd 24d7 b9bd
00000080: f6d7 8abd 3da3 1abd 522e acbd b7b9 34bb
00000090: d907 8a3d c338 0bbd e55b e7bc 25b9 583c
000000a0: 4947 973d 46bd b4bb abe1 49bc dab0 82bd
000000b0: 6503 b6bc 1e36 c439 2a53 c13c 3084 05bd
000000c0: 0865 0b3c 57da efbc dc73 17bd 42e0 a5bc
000000d0: cd55 d7bc 6aba 85bd 3db0 13bd 7cd8 873c
000000e0: 1c21 683d 0d85 4bbd 1d7e 1dbc fdf7 083a
000000f0: cd17 343d 4488 07bd 632a 673c 639f 903d
00000100: 8ecb 023d b299 01bb 7720 8abc 9391 213d
00000110: cc2f 563c 4747 a8bd 1c19 85bb dca4 b43c
00000120: 2eee a6bc 4b06 6ebb 205b 72bc 29fb a33d
00000130: a091 213d 94bc 253d 018a 5abd b7f3 99bd
00000140: 42e8 193c 4963 75bb d67b eabd da86 c1bc
00000150: 503b 953d b5a8 b6bb f6df 76bc 3be4 a5bd
00000160: 8b80 48bd ffbb cbbd 8b28 6ebd f7a5 323d
00000170: e695 d3bc 5c43 1d3d 0522 76bd 3302 adbc
00000180: d979 d6bd 47b7 c8bd af61 b3bd 3698 9339
00000190: 1742 1abc 86b7 0dba b03b 773d 9e18 c33c
000001a0: 4aa5 243a 978d debc de59 1abd 8f9b 67bc
000001b0: 203a aa3d 3324 9eba c410 fc3c 8ad4 7e3d
000001c0: 1f6f 5cbc 06c5 be3c 5d36 bdbc 91e6 36bd
000001d0: 566d 663c b33c 6d3d a7af 77bd 9793 2abd
000001e0: 2076 d23a c9c6 3e3c a0df 0ebd 3d58 2d3c
000001f0: 93a2 d23c f73d 3cbd 8bda e2bd 5bdc 42bd
00000200: 63b2 8c3d 11ea 40bd 3d76 41bd 1061 a1bd
00000210: cdbd cb3d 5a56 efbd a06d 60bd 5d51 a3bc
00000220: 48ad 8bbc 513a 85bc accc 523d 4a71 913d
00000230: 3d4d 2d3d 2e85 29bd e641 943c d8a0 96bd
00000240: a1b4 95bd d9ea 26bc 6c05 dabd 894f c9bd
00000250: 5437 dcbd feaa e9bd 8ffe 95bc 662b 2dbd
00000260: b2ce 9dbd 8b43 d7bb 4028 c33c ad22 8e3d
00000270: 1ec8 a8bd b14c 07be e8a1 72bc 1d40 e53c
00000280: 9808 96bd e519 8ebd 807b 0c3d c452 853c
00000290: baaf 98bb f736 06bd 88b2 5b3d 689f ad3c
000002a0: 5045 eabb e3ae 313c 8f5d 6ebb 412a 503d
000002b0: 0d16 a83c 72a0 79bd 138a a73d 4e1c 4bbd
000002c0: ec31 cbbb 7882 50bd c40f b4bd 6b27 08bc
000002d0: 0944 1bbd d777 103d 5e61 b43c 40c5 a03c
000002e0: 8e34 68bd 07a1 1e3d 150f 1abc 3296 0fbd
000002f0: 6673 623b bfbe 1f3d b712 8b3d e263 1f3d
00000300: c5ba 003d 632b 9e3d 7282 513c b857 48bd
00000310: 17ff 4e3b a7d0 52bd adcc 333d c781 77bc
00000320: 7e6d 383c 5229 193d 3c19 ae3b 3ec0 1bbc
00000330: f613 8ebd f334 953b eab9 a1bd da26 ee3c
00000340: 3601 9dbb fafb 6f3d 37f0 5d3d d414 913c
00000350: abac d8bc 1971 d1bc d177 e13c 4de2 8a3c
00000360: 78a1 20bd 5586 c0bd 95c2 6fbc 941d 88bd
00000370: 1499 dcbc e6f6 713c 3185 1dbd d7f3 86bd
00000380: fcd8 1dbd 93c3 173d c8d4 aa3c 5efb 1cbd
00000390: 2464 7f3d 7fd9 0a3c 6153 3f3d d683 883d
000003a0: 1530 0d3d 1292 98bc c7c0 3bbd 1043 bf3c
000003b0: 1567 9d3d 8e24 54bd d962 3b3d 6489 ec3c
000003c0: f9d3 28bc c03f a13c 8635 13bd 98a3 37bd
000003d0: 7de3 05be 1bb4 90bd aa40 3bbd 56bc 39bd
000003e0: ca7c f2bd f9a3 d3bc aa32 d4bc da82 c5bd
000003f0: 1d0c b1bd 8d12 20bd d735 a4bd deab f0bd

network.network.8.bias f4 [16]
0.022628691 -0.017091129 0.023338057 -0.050180152 -0.08908604 -0.055091824 0.022613933 -0.03567501
-0.0067939037 -0.029439662 -0.049390364 -0.10380022 0.08553615 0.05318476 -0.027697094 -0.07491299
00000000: ce5f b93c b202 8cbc 742f bf3c b489 4dbd
00000010: be72 b6bd f7a7 61bd db40 b93c f61f 12bd
00000020: 659f debb 722b f1bc 8d4d 4abd 3695 d4bd
00000030: 942d af3d 43d8 593d 04e5 e2bc fb6b 99bd

network.fc.0.weight f4 [16, 960]
0.05731969 0.13668467 0.08881518 0.06897606 0.054606922 0.09100422 0.063353404 0.09231846
0.08734789 0.113109566 0.11534134 0.055664197 0.099027105 0.0842936 0.017661843 0.017241135
0.05867538 0.050587412 0.058660097 0.070052154 0.037521295 0.034716096 -0.023903742 -0.053432666
0.01798657 -0.063528225 -0.12619722 -0.098065525 0.017817536 0.006517468 -0.021376407 -0.01183327
0.03501308 -0.094055235 0.011009479 -0.038517892 -0.03335744 0.046988036 -0.004464494 0.04455362
0.083280645 0.09579665 0.12633307 0.10434929 0.07396145 0.060515475 0.06333144 0.0052330135
-0.0082458425 0.002533641 0.08507594 0.09422023 0.07131329 0.10291522 0.055602677 0.054390103
0.040839765 0.08598089 0.03678468 0.007394852 0.036856078 0.03648882 0.038097568 0.046916287
0.06108622 0.087317236 0.02600611 0.050291132 0.08094948 0.04172104 0.07077591 0.03619077
0.07123809 0.07644172 0.079994716 0.030399833 0.038767952 0.09588214 0.052235473 0.07451827
0.070741445 0.07253386 0.08591763 0.05967338 0.0778173 0.0083884895 0.04607126 0.06343424
0.011020196 -0.0017653228 0.07691558 0.06950249 0.030086583 -0.02597331 0.0415812 -0.037208818
0.061395574 -0.015305309 0.06560957 -0.025615891 0.047002465 0.10308598 0.0858252 0.091113225
0.03886607 0.077987194 0.001585264 0.066381976 0.057577092 0.01022959 0.026417874 0.043597907
0.077632315 0.09730538 0.043680433 0.06302992 0.09588199 0.06905833 0.026922826 0.09592899
0.075059 0.07427577 0.09966093 0.02703991 -0.0019681542 -0.011779842 0.0060619526 0.00029342977
-0.052759346 0.03510038 0.22315207 0.09669224 0.11159216 -0.02024275 -0.1164005 -0.1269232
-0.14351498 -0.021895228 0.008682593 0.09150648 0.25156972 0.15066089 -0.009898984 -0.15655345
-0.14687505 -0.1769351 -0.17194693 -0.07077438 -0.018582704 0.058140296 0.40292874 0.33600175
-0.057340097 -0.27101022 -0.27634007 -0.087779954 0.023084564 0.052255243 -0.027616305 -0.049356878
0.34344184 0.29236925 0.0037977733 -0.1629874 -0.09643075 0.03904044 0.20236827 0.13579135
-0.11693365 -0.3428715 0.10703316 0.11927414 0.12016401 0.0077808024 0.05471875 0.04157495
0.069843166 -0.045136485 -0.19039337 -0.44454414 0.043289956 0.018890504 0.054308426 0.053933028
0.08984524 0.066899866 0.089626275 0.017051 0.051639955 0.04404408 0.16551216 0.02056566
-0.02982986 0.13145572 -0.07061427 -0.13187017 -0.08707752 -0.121918336 -0.031638414 0.039541833
0.19438915 0.102372214 -0.021686466 -0.13264775 -0.15252729 -0.14321424 -0.1516182 -0.035937883
0.070195735 0.096182294 0.45798346 0.28814012 -0.06526297 -0.13892984 -0.12132182 -0.0646779
0.08844897 0.11344992 -0.028079439 -0.069189124 0.27219465 0.21356526 0.03783234 -0.04276181
-0.011746163 0.07428598 0.10819583 0.06206532 -0.13017881 -0.51271766 0.07243062 0.16581102
0.09387074 0.0177329 -0.017527077 0.04148076 0.106268786 0.070021495 -0.08417758 -0.38328654
3.1891056e-32 2.8894336e-27 2.440944e-10 -2.5962115e-32 -4.5370044e-32 -3.2614198e-28 1.9442674e-10 -1.1732978e-32
-2.729449e-12 0.00010641017 -2.9687282e-33 9.285283e-33 -3.8125237e-32 -4.2473844e-33 -3.6083592e-32 1.0367178e-31
00000000: 0dc8 6a3d 11f7 0b3e bce4 b53d 5243 8d3d
00000010: 82ab 5f3d 6c60 ba3d 6ebf 813d 7611 bd3d
00000020: 73e3 b23d fda5 e73d 1538 ec3d 2400 643d
00000030: b9ce ca3d 1fa2 ac3d 92af 903c 483d 8d3c
00000040: 9855 703d bf34 4f3d 9245 703d 8177 8f3d
00000050: eeaf 193d 7732 0e3d c8d1 c3bc 36dc 5abd
00000060: 9258 933c 161b 82bd d839 01be 94d6 c8bd
00000070: 15f6 913c 7c90 d53b 931d afbc 55e0 41bc
00000080: e069 0f3d 08a0 c0bd 1a61 343c f0c4 1dbd
00000090: d0a1 08bd 8776 403d e44a 92bb db7d 363d
000000a0: 0b8f aa3d 0931 c43d 755d 013e 15b5 d53d
000000b0: 1a79 973d 13df 773d eab3 813d b379 ab3b
000000c0: 9219 07bc 710b 263b 4b3c ae3d 89f6 c03d
000000d0: b40c 923d 37c5 d23d a2bf 633d 28c8 5e3d
000000e0: 9947 273d c016 b03d 88ab 163d 8450 f23b
000000f0: 66f6 163d 4d75 153d 320c 1c3d 4b2b 403d
00000100: 8b35 7a3d 61d3 b23d c40a d53c 13fe 4d3d
00000110: d7c8 a53d aee3 2a3d f6f2 903d c63c 143d
00000120: 47e5 913d 7a8d 9c3d 45d4 a33d 1209 f93c
00000130: 25cb 1e3d db5d c43d ddf4 553d 099d 983d
00000140: e4e0 903d a28c 943d 95f5 af3d 136c 743d
00000150: ad5e 9f3d e06f 093c 38b5 3c3d d0e9 813d
00000160: 0d8e 343c 6762 e7ba ea85 9d3d 5257 8e3d
00000170: 2378 f63c fbc5 d4bc 0c51 2a3d 4668 18bd
00000180: ed79 7b3d 1ec3 7abc 4f5e 863d 6bd8 d1bc
00000190: a885 403d be1e d33d 1fc5 af3d 9299 ba3d
000001a0: 0732 1f3d c0b7 9f3d a2c8 cf3a 46f3 873d
000001b0: f5d5 6b3d 039a 273c 4c6a d83c b893 323d
000001c0: b1fd 9e3d 0b48 c73d 41ea 323d d515 813d
000001d0: c75d c43d 746e 8d3d 428d dc3c 6b76 c43d
000001e0: 88b8 993d e51d 983d 081b cc3d cd82 dd3c
000001f0: 26fc 00bb 3d00 41bc 58a3 c63b 7ad7 9939
00000200: 2f1a 58bd 6bc5 0f3d fa81 643e 9506 c63d
00000210: 6e8a e43d 20d4 a5bc 6363 eebd 28f8 01be
00000220: 97f5 12be 9f5d b3bc 6f41 0e3c c067 bb3d
00000230: bfcd 803e d946 1a3e 592f 22bc 8c4f 20be
00000240: 6a66 16be 7a2e 35be db12 30be 28f2 90bd
00000250: c13a 98bc 8524 6e3d ad4c ce3e 6c08 ac3e
00000260: 73dd 6abd dac1 8abe 727c 8dbe fac5 b3bd
00000270: d71b bd3c 9809 563d 973b e2bc 702a 4abd
00000280: 9cd7 af3e 6cb1 953e 10e4 783b 2be6 26be
00000290: 7c7d c5bd dee8 1f3d a139 4f3e e30c 0b3e
000002a0: e97a efbd da8c afbe 3434 db3d 0046 f43d
000002b0: 8c18 f63d 1af6 fe3b c520 603d 7f4a 2a3d
000002c0: ef09 8f3d 09e1 38bd 7bf6 42be 4a9b e3be
000002d0: cf50 313d 42c0 9a3c 8372 5e3d e1e8 5c3d
000002e0: c800 b83d cc02 893d fb8d b73d 8aae 8b3c
000002f0: 6b84 533d 9167 343d 057c 293e 5179 a83c
00000300: c05d f4bc 549c 063e 379e 90bd f908 07be
00000310: b355 b2bd 52b0 f9bd 4897 01bd 9ef6 213d
00000320: f30d 473e 86a8 d13d d1a7 b1bc d0d4 07be
00000330: 1d30 1cbe c1a6 12be cd41 1bbe 9a33 13bd
00000340: c8c2 8f3d 39fb c43d cf7c ea3e 1a87 933e
00000350: 98a8 85bd a043 0ebe 9377 f8bd d975 84bd
00000360: bc24 b53d 6f58 e83d da06 e6bc 07b3 8dbd
00000370: 195d 8b3e dab0 5a3e 15f6 1a3d 0227 2fbd
00000380: fa72 40bc 3f23 983d c695 dd3d 3438 7e3d
00000390: 984d 05be 7741 03bf 8156 943d 5dca 293e
000003a0: 4d3f c03d 9644 913c f294 8fbc bbe7 293d
000003b0: 73a3 d93d 6e67 8f3d 4c65 acbd 223e c4be
000003c0: 7c96 250b adec 6413 3c31 862f 92cd 068b
000003d0: 2293 6b8b 90b7 ce91 43c6 552f 36af 738a
000003e0: 6211 40ac 8628 df38 dea1 7689 08d9 400a
000003f0: 22f5 458b f06d b089 525b 3b8b dc92 060c

network.fc.0.bias f4 [16]
0.055896427 0.02877539 0.024070483 0.047116987 0.026341036 0.067416154 -0.04453027 0.058455575
-0.033442292 -0.04267996 -0.026664663 0.06791645 -0.03138816 -0.05988502 0.00041416584 0.037154097
00000000: a7f3 643d 5eba eb3c 762f c53c befd 403d
00000010: 28c9 d73c 7b11 8a3d 5f65 36bd 1d6f 6f3d
00000020: c9fa 08bd 2fd1 2ebd da6f dabc c817 8b3d
00000030: df90 00bd ff49 75bd 6624 d939 e52e 183d

exp_avg f4 [4, 1, 7, 7]
0.0028552706 0.0023447848 -0.0005142099 -0.0008159927 -0.0012535794 -0.0011138208 -0.0022617455 -0.0011195448
0.0012885813 0.0010524916 0.0022789093 0.0015251887 0.00036952505 -0.0020008495 -0.009941444 -0.0076825726
-0.008342009 -0.0074885814 -0.006871836 -0.0052904123 -0.0038431701 0.003946713 0.0037977449 0.0013583003
0.0020438305 0.002281818 0.004026947 0.0046992972 -0.0030452062 -0.0013815295 -0.0010079572 0.001800389
0.0020993766 0.002176232 -0.00044637726 0.0062156306 0.0056909937 0.0039386125 0.0029767337 0.0029544723
0.0061085327 0.0062554753 0.0034981691 0.0030597644 0.0025062556 0.0024451548 0.0003224206 0.0012457682
0.0013093832 -0.0028526876 -0.0027653738 -0.0022819038 -0.0014554051 -0.00086622953 -0.0012609817 -0.00049011654
0.004471968 0.0040795105 0.0029771095 0.0022795019 0.0009451992 0.0013606467 0.000837668 0.0025547405
0.0022286093 0.0023026017 0.0023711482 0.0025288314 0.0019746872 0.00087894883 0.0060574366 0.0065519195
0.0067806467 0.007591209 0.007503216 0.008132403 0.008299772 0.0012804198 0.0015617097 0.0025601503
0.002667658 0.0029042445 0.0021137178 0.0021216224 0.0016291499 0.0024722777 0.0027434423 0.0036706165
0.004117595 0.005879433 0.0060517536 -0.0039200466 -0.0028479407 -0.0025423004 -0.0027524354 -0.0023017242
-0.0009636271 -6.528129e-05 -0.003706415 -0.0024917193 -0.0016793192 0.0008659076 0.00036750484 0.0007151511
0.0016240673 0.005013094 0.0054202694 0.005881152 0.010502379 0.010318071 0.012593505 0.0122908335
-0.00029300762 -0.000577995 -0.00227693 -0.0014237787 -0.0019571115 -0.00036351892 0.0002311111 0.0052677877
0.0039490205 0.003959827 0.0027831623 0.00061572343 -0.0017542688 -0.004665439 -0.0022714706 -0.0016761892
-0.00085103157 0.00026031354 -0.0008212663 -0.0033233599 -0.0025399285 0.0016310663 0.004310893 0.004038177
0.0067332243 0.007410306 0.011450259 0.014730085 -0.010413311 -0.00788153 -0.007589757 -0.0047725555
-0.00594915 -0.003239143 -0.0025713057 0.003975678 0.0023439466 0.0021118508 0.0015048876 0.0020494843
0.0021449844 0.0029528467 0.0013207064 0.0019030458 0.0025309362 0.0015441844 0.0018601099 0.002161779
0.00195358 -0.006409131 -0.0045662816 -0.0032334758 -0.0015747056 0.00044604472 0.00093659374 0.0019116811
0.0017678421 0.0028077643 0.0023033505 0.0038226766 0.0047200727 0.007852332 0.007349017 -0.0052552847
-0.0038723382 -0.004318936 -0.0026874272 -0.0027071966 -0.0014081625 -0.0013420661 0.0043484597 0.004798079
0.003451379 0.003816627 0.004158406 0.005211019 0.004313859 -0.0045821015 -0.0031871153 -0.004338132
-0.0036359564 -0.0031439045 -0.0020334579 -0.0024693923
00000000: 7e1f 3b3b f6aa 193b 0bcc 06ba 58e8 55ba
00000010: 254f a4ba a0fd 91ba cb39 14bb b1bd 92ba
00000020: 9de5 a83a c2f3 893a c159 153b d7e8 c73a
00000030: d0bc c139 af20 03bb 70e1 22bc 17be fbbb
00000040: ecac 08bc c662 f5bb 232d e1bb 325b adbb
00000050: b2dd 7bbb 6e53 813b 96e3 783b ff08 b23a
00000060: c9f1 053b 8e8a 153b 7bf4 833b 90fc 993b
00000070: 1592 47bb 7014 b5ba 6e1d 84ba 08fb eb3a
00000080: b295 093b 1d9f 0e3b be07 eab9 7dac cb3b
00000090: 847b ba3b 7a0f 813b 4e15 433b d29f 413b
000000a0: 162a c83b bbfa cc3b 8a41 653b 5486 483b
000000b0: fe3f 243b e43e 203b 8f0a a939 0b49 a33a
000000c0: 9c9f ab3a 28f4 3abb 463b 35bb fe8b 15bb
000000d0: 4bc3 beba ae13 63ba 8647 a5ba 2a7b 00ba
000000e0: 9689 923b 6aad 853b 9c1b 433b b263 153b
000000f0: 3fc7 773a ba57 b23a f396 5b3a 6f6d 273b
00000100: dc0d 123b 3fe7 163b 4465 1b3b c0ba 253b
00000110: c169 013b 4269 663a 767d c63b 7cb1 d63b
00000120: 3030 de3b adbf f83b 8add f53b c53d 053c
00000130: c4fb 073c c2d3 a73a 48b2 cc3a 32c8 273b
00000140: e0d3 2e3b 2355 3e3b 4d86 0a3b eb0a 0b3b
00000150: 3389 d53a f005 223b 53cb 333b ba8e 703b
00000160: e4ec 863b 42a8 c03b ca4d c63b bc73 80bb
00000170: 84a4 3abb b99c 26bb 3462 34bb 86d8 16bb
00000180: ec9b 7cba a0e7 88b8 53e7 72bb 1d4c 23bb
00000190: 9a1c dcba 13fe 623a aaad c039 fa78 3b3a
000001a0: a8de d43a e144 a43b 849c b13b aeb6 c03b
000001b0: 2c12 2c3c 200d 293c fd54 4e3c 7e5f 493c
000001c0: d19e 99b9 9684 17ba 8c38 15bb 169e baba
000001d0: e242 00bb af96 beb9 6a56 7239 689d ac3b
000001e0: c966 813b 70c1 813b b765 363b 8068 213a
000001f0: 7eef e5ba 8ae0 98bb f4dc 14bb 94b3 dbba
00000200: c317 5fba b17a 8839 404a 57ba bacc 59bb
00000210: ee74 26bb 81c9 d53a 6442 8d3b af52 843b
00000220: 61a2 dc3b 27d2 f23b de99 3b3c 7456 713c
00000230: 989c 2abc 8821 01bc 7fb3 f8bb 1963 9cbb
00000240: 16f1 c2bb cd47 54bb 5a83 28bb 6746 823b
00000250: e69c 193b fa66 0a3b a63f c53a a450 063b
00000260: de92 0c3b 8c84 413b 8e1b ad3a 9f6f f93a
00000270: 10de 253b 3b66 ca3a eece f33a a2ac 0d3b
00000280: a207 003b b003 d2bb bfa0 95bb b9e8 53bb
00000290: 5a66 ceba 1cdb e939 be85 753a 6091 fa3a
000002a0: f0b6 e73a 7802 383b cff3 163b df85 7a3b
000002b0: d7aa 9a3b 11a7 003c 06d0 f03b 8634 acbb
000002c0: 0ec7 7dbb dc85 8dbb 8c1f 30bb 396b 31bb
000002d0: 1892 b8ba 44e8 afba 867d 8e3b 3439 9d3b
000002e0: 8830 623b 6020 7a3b 3d43 883b 32c1 aa3b
000002f0: 465b 8d3b 7425 96bb ecde 50bb e426 8ebb
00000300: 3a49 6ebb f709 4ebb c343 05bb 87d5 21bb

exp_avg_sq f4 [4, 1, 7, 7]
0.0010442158 0.00090271217 0.00074980437 0.0007230944 0.00071097957 0.00081748026 0.0007564562 0.00034965825
0.00017598887 0.0001613721 0.00021773466 0.00022039976 0.0002837419 0.00023886526 0.0008415116 0.0008103778
0.000777486 0.000748209 0.0007591812 0.0009362516 0.0010918814 0.0014512294 0.0011482217 0.0010116495
0.0010967326 0.0011024129 0.0010391006 0.0010870694 0.00089686876 0.0010658959 0.0011484683 0.001013996
0.00072527706 0.0005707241 0.0006759228 0.00087274215 0.0008420503 0.0008359302 0.0009761734 0.0010793292
0.0011843633 0.0012020466 0.00014817507 0.00011632709 0.000108164706 0.00015833371 0.00021943655 0.00025290428
0.0003785119 0.019067286 0.023583366 0.025954718 0.02540042 0.021627868 0.017444547 0.013966942
0.013887123 0.015753629 0.015571731 0.01696211 0.01650313 0.0155665735 0.014693548 0.0025599264
0.0024072083 0.0021160662 0.002468789 0.002807113 0.0033782846 0.0039597643 0.0019361108 0.0022114273
0.0021352102 0.002282395 0.0020853006 0.0019076847 0.0019387061 0.0027833893 0.002785473 0.00212841
0.0019945554 0.0020657186 0.0020911286 0.0020737106 0.0031126258 0.0038233828 0.0036302425 0.0033298903
0.0028316397 0.0022366683 0.0021104955 0.0036311238 0.0041381214 0.00399818 0.004480823 0.0052300724
0.0054229656 0.005434347 0.001024737 0.0011171926 0.0010172938 0.0010052306 0.0012514438 0.0016373299
0.0018687601 0.0024277146 0.0028452321 0.0028125558 0.002738027 0.002652639 0.002775661 0.0025193982
0.003417634 0.004129447 0.0041171615 0.0040322696 0.0038839872 0.0037258854 0.003132505 0.0020859183
0.0021532164 0.0018633748 0.00176268 0.0017606711 0.0019363445 0.0019633549 0.0013800453 0.0013898204
0.0010159723 0.00083054055 0.00083025097 0.0008971998 0.00081694365 0.004572277 0.0044434513 0.0033702624
0.0030096245 0.002873453 0.002963977 0.0028685378 0.004894377 0.007131374 0.0071904063 0.0071830675
0.0063835927 0.0059066187 0.0046757893 0.004718942 0.005179388 0.0052147754 0.005432565 0.005055204
0.0044319257 0.004004663 0.0024803656 0.0021060894 0.0017922651 0.001986737 0.0022127214 0.0026175433
0.003018275 0.0027965892 0.002560202 0.002588218 0.0029287988 0.002501563 0.0026010799 0.0029401626
0.010606409 0.011190531 0.010311951 0.009893919 0.010014985 0.009357851 0.009452969 0.0078111365
0.009253176 0.011721903 0.0149676325 0.0181898 0.017308697 0.015819801 0.0066583618 0.0064364644
0.006214082 0.0068386965 0.0075354944 0.0076762643 0.009027464 0.0076054055 0.007253591 0.0073704226
0.008143739 0.008892552 0.00963497 0.0104422085
00000000: 11de 883a fda3 6c3a 858e 443a 0b8e 3d3a
00000010: 0861 3a3a 2c4c 563a eb4c 463a 5652 b739
00000020: a789 3839 fe35 2939 b44f 6439 1c1b 6739
00000030: 31c3 9439 e877 7a39 e398 5c3a 896f 543a
00000040: 34d0 4b3a 7523 443a ca03 473a c86e 753a
00000050: 761d 8f3a 2e37 be3a ed7f 963a 5399 843a
00000060: 3dc0 8f3a d77e 903a 6e32 883a ff7b 8e3a
00000070: d81b 6b3a 88b5 8b3a 3488 963a 0fe8 843a
00000080: 8520 3e3a a59c 153a 6930 313a bcc8 643a
00000090: 0abd 5c3a 5322 5b3a e3e5 7f3a 4778 8d3a
000000a0: a33c 9b3a fe8d 9d3a 715f 1b39 a2f4 f338
000000b0: 7cd6 e238 6206 2639 8d18 6639 3d98 8439
000000c0: 0273 c639 ff32 9c3c e731 c13c fd9e d43c
000000d0: 8b14 d03c ed2c b13c dee7 8e3c 9ad5 643c
000000e0: d186 633c c10d 813c 9320 7f3c 1ff4 8a3c
000000f0: 9231 873c f10a 7f3c 35bd 703c 70c4 273b
00000100: 41c2 1d3b b3ad 0a3b 68cb 213b 8bf7 373b
00000110: 3666 5d3b e9c0 813b 19c5 fd3a 98ed 103b
00000120: e2ee 0b3b 3c94 153b 8aa9 083b 470b fa3a
00000130: 2f1c fe3a 8669 363b 7b8c 363b cb7c 0b3b
00000140: 16b7 023b 0261 073b 510b 093b 17e7 073b
00000150: 32fd 4b3b b891 7a3b 5de9 6d3b 4a3a 5a3b
00000160: 0893 393b 1195 123b 3d50 0a3b 26f8 6d3b
00000170: 1499 873b 2a03 833b ded3 923b 0761 ab3b
00000180: 22b3 b13b 9b12 b23b 7850 863a c36e 923a
00000190: b756 853a f1c1 833a 7c07 a43a ad9b d63a
000001a0: 2ff1 f43a 4b1a 1f3b 1377 3a3b db52 383b
000001b0: 7870 333b e6d7 2d3b dde7 353b 7d1c 253b
000001c0: 62fa 5f3b 5050 873b 41e9 863b 2121 843b
000001d0: 7e8a 7e3b fc2d 743b b74a 4d3b e7b3 083b
000001e0: fa1c 0d3b 7c3c f43a ba09 e73a 52c6 e63a
000001f0: f1cc fd3a a1ab 003b a3e2 b43a a22a b63a
00000200: 602a 853a a2b8 593a 33a5 593a 0f32 6b3a
00000210: 2928 563a 0ad3 953b 5f9a 913b 9fdf 5c3b
00000220: 1f3d 453b 8b50 3c3b 483f 423b 14fe 3b3b
00000230: 0361 a03b 4dae e93b 809d eb3b f05f eb3b
00000240: 752d d13b 4f8c c13b 5d37 993b 5ba1 9a3b
00000250: dbb7 a93b b5e0 aa3b a903 b23b 20a6 a53b
00000260: b039 913b 8c39 833b a18d 223b 5106 0a3b
00000270: 70ea ea3a ea33 023b 4e03 113b 178b 2b3b
00000280: 40ce 453b fb46 373b 10c9 273b 189f 293b
00000290: 17f1 3f3b 43f1 233b e176 2a3b beaf 403b
000002a0: 81c6 2d3c 7d58 373c 75f3 283c 1b1a 223c
000002b0: e415 243c ac51 193c a0e0 1a3c 90f4 ff3b
000002c0: a29a 173c 3a0d 403c cd3a 753c c702 953c
000002d0: f8ca 8d3c 8798 813c 632e da3b fae8 d23b
000002e0: 7f9f cb3b 2517 e03b 4fec f63b 2c89 fb3b
000002f0: eee7 133c c436 f93b 88af ed3b 9683 f13b
00000300: 516d 053c 11b2 113c fedb 1d3c cc15 2b3c

exp_avg f4 [4]
0.00026443962 0.0008493526 0.0052515264 -5.2154188e-05
00000000: 7ca4 8a39 17a7 5e3a ff14 ac3b 22c0 5ab8

exp_avg_sq f4 [4]
0.0004385944 0.05935022 0.025132867 0.048919503
00000000: 25f3 e539 3719 733d 71e3 cd3c d15f 483d
